Model: "model"
__________________________________________________________________________________________________
Layer (type)                    Output Shape         Param #     Connected to                     
==================================================================================================
input_1 (InputLayer)            [(None, 1501, 1, 1)] 0                                            
__________________________________________________________________________________________________
conv2d (Conv2D)                 (None, 1501, 1, 8)   64          input_1[0][0]                    
__________________________________________________________________________________________________
batch_normalization (BatchNorma (None, 1501, 1, 8)   32          conv2d[0][0]                     
__________________________________________________________________________________________________
activation (Activation)         (None, 1501, 1, 8)   0           batch_normalization[0][0]        
__________________________________________________________________________________________________
dropout (Dropout)               (None, 1501, 1, 8)   0           activation[0][0]                 
__________________________________________________________________________________________________
conv2d_1 (Conv2D)               (None, 1501, 1, 8)   448         dropout[0][0]                    
__________________________________________________________________________________________________
batch_normalization_1 (BatchNor (None, 1501, 1, 8)   32          conv2d_1[0][0]                   
__________________________________________________________________________________________________
activation_1 (Activation)       (None, 1501, 1, 8)   0           batch_normalization_1[0][0]      
__________________________________________________________________________________________________
dropout_1 (Dropout)             (None, 1501, 1, 8)   0           activation_1[0][0]               
__________________________________________________________________________________________________
conv2d_2 (Conv2D)               (None, 376, 1, 8)    448         dropout_1[0][0]                  
__________________________________________________________________________________________________
batch_normalization_2 (BatchNor (None, 376, 1, 8)    32          conv2d_2[0][0]                   
__________________________________________________________________________________________________
activation_2 (Activation)       (None, 376, 1, 8)    0           batch_normalization_2[0][0]      
__________________________________________________________________________________________________
dropout_2 (Dropout)             (None, 376, 1, 8)    0           activation_2[0][0]               
__________________________________________________________________________________________________
conv2d_3 (Conv2D)               (None, 376, 1, 16)   896         dropout_2[0][0]                  
__________________________________________________________________________________________________
batch_normalization_3 (BatchNor (None, 376, 1, 16)   64          conv2d_3[0][0]                   
__________________________________________________________________________________________________
activation_3 (Activation)       (None, 376, 1, 16)   0           batch_normalization_3[0][0]      
__________________________________________________________________________________________________
dropout_3 (Dropout)             (None, 376, 1, 16)   0           activation_3[0][0]               
__________________________________________________________________________________________________
conv2d_4 (Conv2D)               (None, 94, 1, 16)    1792        dropout_3[0][0]                  
__________________________________________________________________________________________________
batch_normalization_4 (BatchNor (None, 94, 1, 16)    64          conv2d_4[0][0]                   
__________________________________________________________________________________________________
activation_4 (Activation)       (None, 94, 1, 16)    0           batch_normalization_4[0][0]      
__________________________________________________________________________________________________
dropout_4 (Dropout)             (None, 94, 1, 16)    0           activation_4[0][0]               
__________________________________________________________________________________________________
conv2d_5 (Conv2D)               (None, 94, 1, 32)    3584        dropout_4[0][0]                  
__________________________________________________________________________________________________
batch_normalization_5 (BatchNor (None, 94, 1, 32)    128         conv2d_5[0][0]                   
__________________________________________________________________________________________________
activation_5 (Activation)       (None, 94, 1, 32)    0           batch_normalization_5[0][0]      
__________________________________________________________________________________________________
dropout_5 (Dropout)             (None, 94, 1, 32)    0           activation_5[0][0]               
__________________________________________________________________________________________________
conv2d_6 (Conv2D)               (None, 24, 1, 32)    7168        dropout_5[0][0]                  
__________________________________________________________________________________________________
batch_normalization_6 (BatchNor (None, 24, 1, 32)    128         conv2d_6[0][0]                   
__________________________________________________________________________________________________
activation_6 (Activation)       (None, 24, 1, 32)    0           batch_normalization_6[0][0]      
__________________________________________________________________________________________________
dropout_6 (Dropout)             (None, 24, 1, 32)    0           activation_6[0][0]               
__________________________________________________________________________________________________
conv2d_7 (Conv2D)               (None, 24, 1, 64)    14336       dropout_6[0][0]                  
__________________________________________________________________________________________________
batch_normalization_7 (BatchNor (None, 24, 1, 64)    256         conv2d_7[0][0]                   
__________________________________________________________________________________________________
activation_7 (Activation)       (None, 24, 1, 64)    0           batch_normalization_7[0][0]      
__________________________________________________________________________________________________
dropout_7 (Dropout)             (None, 24, 1, 64)    0           activation_7[0][0]               
__________________________________________________________________________________________________
conv2d_8 (Conv2D)               (None, 6, 1, 64)     28672       dropout_7[0][0]                  
__________________________________________________________________________________________________
batch_normalization_8 (BatchNor (None, 6, 1, 64)     256         conv2d_8[0][0]                   
__________________________________________________________________________________________________
activation_8 (Activation)       (None, 6, 1, 64)     0           batch_normalization_8[0][0]      
__________________________________________________________________________________________________
dropout_8 (Dropout)             (None, 6, 1, 64)     0           activation_8[0][0]               
__________________________________________________________________________________________________
conv2d_9 (Conv2D)               (None, 6, 1, 128)    57344       dropout_8[0][0]                  
__________________________________________________________________________________________________
batch_normalization_9 (BatchNor (None, 6, 1, 128)    512         conv2d_9[0][0]                   
__________________________________________________________________________________________________
activation_9 (Activation)       (None, 6, 1, 128)    0           batch_normalization_9[0][0]      
__________________________________________________________________________________________________
dropout_9 (Dropout)             (None, 6, 1, 128)    0           activation_9[0][0]               
__________________________________________________________________________________________________
conv2d_transpose (Conv2DTranspo (None, 24, 1, 64)    57344       dropout_9[0][0]                  
__________________________________________________________________________________________________
batch_normalization_10 (BatchNo (None, 24, 1, 64)    256         conv2d_transpose[0][0]           
__________________________________________________________________________________________________
activation_10 (Activation)      (None, 24, 1, 64)    0           batch_normalization_10[0][0]     
__________________________________________________________________________________________________
dropout_10 (Dropout)            (None, 24, 1, 64)    0           activation_10[0][0]              
__________________________________________________________________________________________________
tf.slice (TFOpLambda)           (None, 24, 1, 64)    0           dropout_10[0][0]                 
__________________________________________________________________________________________________
tf.concat (TFOpLambda)          (None, 24, 1, 128)   0           dropout_7[0][0]                  
                                                                 tf.slice[0][0]                   
__________________________________________________________________________________________________
conv2d_10 (Conv2D)              (None, 24, 1, 64)    57344       tf.concat[0][0]                  
__________________________________________________________________________________________________
batch_normalization_11 (BatchNo (None, 24, 1, 64)    256         conv2d_10[0][0]                  
__________________________________________________________________________________________________
activation_11 (Activation)      (None, 24, 1, 64)    0           batch_normalization_11[0][0]     
__________________________________________________________________________________________________
dropout_11 (Dropout)            (None, 24, 1, 64)    0           activation_11[0][0]              
__________________________________________________________________________________________________
conv2d_transpose_1 (Conv2DTrans (None, 96, 1, 32)    14336       dropout_11[0][0]                 
__________________________________________________________________________________________________
batch_normalization_12 (BatchNo (None, 96, 1, 32)    128         conv2d_transpose_1[0][0]         
__________________________________________________________________________________________________
activation_12 (Activation)      (None, 96, 1, 32)    0           batch_normalization_12[0][0]     
__________________________________________________________________________________________________
dropout_12 (Dropout)            (None, 96, 1, 32)    0           activation_12[0][0]              
__________________________________________________________________________________________________
tf.slice_1 (TFOpLambda)         (None, 94, 1, 32)    0           dropout_12[0][0]                 
__________________________________________________________________________________________________
tf.concat_1 (TFOpLambda)        (None, 94, 1, 64)    0           dropout_5[0][0]                  
                                                                 tf.slice_1[0][0]                 
__________________________________________________________________________________________________
conv2d_11 (Conv2D)              (None, 94, 1, 32)    14336       tf.concat_1[0][0]                
__________________________________________________________________________________________________
batch_normalization_13 (BatchNo (None, 94, 1, 32)    128         conv2d_11[0][0]                  
__________________________________________________________________________________________________
activation_13 (Activation)      (None, 94, 1, 32)    0           batch_normalization_13[0][0]     
__________________________________________________________________________________________________
dropout_13 (Dropout)            (None, 94, 1, 32)    0           activation_13[0][0]              
__________________________________________________________________________________________________
conv2d_transpose_2 (Conv2DTrans (None, 376, 1, 16)   3584        dropout_13[0][0]                 
__________________________________________________________________________________________________
batch_normalization_14 (BatchNo (None, 376, 1, 16)   64          conv2d_transpose_2[0][0]         
__________________________________________________________________________________________________
activation_14 (Activation)      (None, 376, 1, 16)   0           batch_normalization_14[0][0]     
__________________________________________________________________________________________________
dropout_14 (Dropout)            (None, 376, 1, 16)   0           activation_14[0][0]              
__________________________________________________________________________________________________
tf.slice_2 (TFOpLambda)         (None, 376, 1, 16)   0           dropout_14[0][0]                 
__________________________________________________________________________________________________
tf.concat_2 (TFOpLambda)        (None, 376, 1, 32)   0           dropout_3[0][0]                  
                                                                 tf.slice_2[0][0]                 
__________________________________________________________________________________________________
conv2d_12 (Conv2D)              (None, 376, 1, 16)   3584        tf.concat_2[0][0]                
__________________________________________________________________________________________________
batch_normalization_15 (BatchNo (None, 376, 1, 16)   64          conv2d_12[0][0]                  
__________________________________________________________________________________________________
activation_15 (Activation)      (None, 376, 1, 16)   0           batch_normalization_15[0][0]     
__________________________________________________________________________________________________
dropout_15 (Dropout)            (None, 376, 1, 16)   0           activation_15[0][0]              
__________________________________________________________________________________________________
conv2d_transpose_3 (Conv2DTrans (None, 1504, 1, 8)   896         dropout_15[0][0]                 
__________________________________________________________________________________________________
batch_normalization_16 (BatchNo (None, 1504, 1, 8)   32          conv2d_transpose_3[0][0]         
__________________________________________________________________________________________________
activation_16 (Activation)      (None, 1504, 1, 8)   0           batch_normalization_16[0][0]     
__________________________________________________________________________________________________
dropout_16 (Dropout)            (None, 1504, 1, 8)   0           activation_16[0][0]              
__________________________________________________________________________________________________
tf.slice_3 (TFOpLambda)         (None, 1501, 1, 8)   0           dropout_16[0][0]                 
__________________________________________________________________________________________________
tf.concat_3 (TFOpLambda)        (None, 1501, 1, 16)  0           dropout_1[0][0]                  
                                                                 tf.slice_3[0][0]                 
__________________________________________________________________________________________________
conv2d_13 (Conv2D)              (None, 1501, 1, 8)   896         tf.concat_3[0][0]                
__________________________________________________________________________________________________
batch_normalization_17 (BatchNo (None, 1501, 1, 8)   32          conv2d_13[0][0]                  
__________________________________________________________________________________________________
activation_17 (Activation)      (None, 1501, 1, 8)   0           batch_normalization_17[0][0]     
__________________________________________________________________________________________________
dropout_17 (Dropout)            (None, 1501, 1, 8)   0           activation_17[0][0]              
__________________________________________________________________________________________________
conv2d_14 (Conv2D)              (None, 1501, 1, 3)   27          dropout_17[0][0]                 
__________________________________________________________________________________________________
softmax (Softmax)               (None, 1501, 1, 3)   0           conv2d_14[0][0]                  
==================================================================================================
Total params: 269,563
Trainable params: 95,787
Non-trainable params: 173,776
__________________________________________________________________________________________________
